…
None, 'max_pool': False, 'y_sc': None, 'tc': 'SingleEConvNets', 'sub_tc': 'sub_tc', 'noise_type': 'None', 'data_type': 'Acc', 'duration': '0.5sec', 'num_sensors': 9, 'damage_case': 'SingleE', 'split_test': True, 'dr': 0.0}
Model: "convnets"
_________________________________________________________________
Layer (type)                 Output Shape              Param #   
=================================================================
input_1 (InputLayer)         [(None, 14, 331, 9)]      0         
_________________________________________________________________
conv2d (Conv2D)              (None, 14, 67, 24)        3240      
_________________________________________________________________
batch_normalization (BatchNo (None, 14, 67, 24)        96        
_________________________________________________________________
activation (Activation)      (None, 14, 67, 24)        0         
_________________________________________________________________
conv2d_1 (Conv2D)            (None, 14, 67, 48)        1152      
_________________________________________________________________
batch_normalization_1 (Batch (None, 14, 67, 48)        192       
_________________________________________________________________
activation_1 (Activation)    (None, 14, 67, 48)        0         
_________________________________________________________________
conv2d_2 (Conv2D)            (None, 14, 67, 24)        11520     
_________________________________________________________________
batch_normalization_2 (Batch (None, 14, 67, 24)        96        
_________________________________________________________________
activation_2 (Activation)    (None, 14, 67, 24)        0         
_________________________________________________________________
conv2d_3 (Conv2D)            (None, 14, 67, 48)        1152      
_________________________________________________________________
batch_normalization_3 (Batch (None, 14, 67, 48)        192       
_________________________________________________________________
activation_3 (Activation)    (None, 14, 67, 48)        0         
_________________________________________________________________
conv2d_4 (Conv2D)            (None, 14, 67, 24)        11520     
_________________________________________________________________
batch_normalization_4 (Batch (None, 14, 67, 24)        96        
_________________________________________________________________
activation_4 (Activation)    (None, 14, 67, 24)        0         
_________________________________________________________________
conv2d_5 (Conv2D)            (None, 14, 67, 48)        1152      
_________________________________________________________________
batch_normalization_5 (Batch (None, 14, 67, 48)        192       
_________________________________________________________________
activation_5 (Activation)    (None, 14, 67, 48)        0         
_________________________________________________________________
conv2d_6 (Conv2D)            (None, 14, 67, 24)        11520     
_________________________________________________________________
batch_normalization_6 (Batch (None, 14, 67, 24)        96        
_________________________________________________________________
activation_6 (Activation)    (None, 14, 67, 24)        0         
_________________________________________________________________
conv2d_7 (Conv2D)            (None, 14, 67, 48)        1152      
_________________________________________________________________
batch_normalization_7 (Batch (None, 14, 67, 48)        192       
_________________________________________________________________
activation_7 (Activation)    (None, 14, 67, 48)        0         
_________________________________________________________________
conv2d_8 (Conv2D)            (None, 14, 67, 24)        11520     
_________________________________________________________________
batch_normalization_8 (Batch (None, 14, 67, 24)        96        
_________________________________________________________________
activation_8 (Activation)    (None, 14, 67, 24)        0         
_________________________________________________________________
conv2d_9 (Conv2D)            (None, 14, 67, 48)        1152      
_________________________________________________________________
batch_normalization_9 (Batch (None, 14, 67, 48)        192       
_________________________________________________________________
activation_9 (Activation)    (None, 14, 67, 48)        0         
_________________________________________________________________
conv2d_10 (Conv2D)           (None, 14, 67, 24)        11520     
_________________________________________________________________
batch_normalization_10 (Batc (None, 14, 67, 24)        96        
_________________________________________________________________
activation_10 (Activation)   (None, 14, 67, 24)        0         
_________________________________________________________________
conv2d_11 (Conv2D)           (None, 14, 67, 48)        1152      
_________________________________________________________________
batch_normalization_11 (Batc (None, 14, 67, 48)        192       
_________________________________________________________________
activation_11 (Activation)   (None, 14, 67, 48)        0         
_________________________________________________________________
conv2d_12 (Conv2D)           (None, 14, 67, 24)        11520     
_________________________________________________________________
batch_normalization_12 (Batc (None, 14, 67, 24)        96        
_________________________________________________________________
activation_12 (Activation)   (None, 14, 67, 24)        0         
_________________________________________________________________
conv2d_13 (Conv2D)           (None, 14, 67, 96)        2304      
_________________________________________________________________
average_pooling2d (AveragePo (None, 7, 33, 96)         0         
_________________________________________________________________
batch_normalization_13 (Batc (None, 7, 33, 96)         384       
_________________________________________________________________
activation_13 (Activation)   (None, 7, 33, 96)         0         
_________________________________________________________________
conv2d_14 (Conv2D)           (None, 7, 33, 48)         4608      
_________________________________________________________________
batch_normalization_14 (Batc (None, 7, 33, 48)         192       
_________________________________________________________________
activation_14 (Activation)   (None, 7, 33, 48)         0         
_________________________________________________________________
conv2d_15 (Conv2D)           (None, 7, 33, 96)         46080     
_________________________________________________________________
batch_normalization_15 (Batc (None, 7, 33, 96)         384       
_________________________________________________________________
activation_15 (Activation)   (None, 7, 33, 96)         0         
_________________________________________________________________
conv2d_16 (Conv2D)           (None, 7, 33, 48)         4608      
_________________________________________________________________
batch_normalization_16 (Batc (None, 7, 33, 48)         192       
_________________________________________________________________
activation_16 (Activation)   (None, 7, 33, 48)         0         
_________________________________________________________________
conv2d_17 (Conv2D)           (None, 7, 33, 96)         46080     
_________________________________________________________________
batch_normalization_17 (Batc (None, 7, 33, 96)         384       
_________________________________________________________________
activation_17 (Activation)   (None, 7, 33, 96)         0         
_________________________________________________________________
conv2d_18 (Conv2D)           (None, 7, 33, 48)         4608      
_________________________________________________________________
batch_normalization_18 (Batc (None, 7, 33, 48)         192       
_________________________________________________________________
activation_18 (Activation)   (None, 7, 33, 48)         0         
_________________________________________________________________
conv2d_19 (Conv2D)           (None, 7, 33, 96)         46080     
_________________________________________________________________
batch_normalization_19 (Batc (None, 7, 33, 96)         384       
_________________________________________________________________
activation_19 (Activation)   (None, 7, 33, 96)         0         
_________________________________________________________________
conv2d_20 (Conv2D)           (None, 7, 33, 48)         4608      
_________________________________________________________________
batch_normalization_20 (Batc (None, 7, 33, 48)         192       
_________________________________________________________________
activation_20 (Activation)   (None, 7, 33, 48)         0         
_________________________________________________________________
conv2d_21 (Conv2D)           (None, 7, 33, 96)         46080     
_________________________________________________________________
batch_normalization_21 (Batc (None, 7, 33, 96)         384       
_________________________________________________________________
activation_21 (Activation)   (None, 7, 33, 96)         0         
_________________________________________________________________
conv2d_22 (Conv2D)           (None, 7, 33, 48)         4608      
_________________________________________________________________
batch_normalization_22 (Batc (None, 7, 33, 48)         192       
_________________________________________________________________
activation_22 (Activation)   (None, 7, 33, 48)         0         
_________________________________________________________________
conv2d_23 (Conv2D)           (None, 7, 33, 96)         46080     
_________________________________________________________________
batch_normalization_23 (Batc (None, 7, 33, 96)         384       
_________________________________________________________________
activation_23 (Activation)   (None, 7, 33, 96)         0         
_________________________________________________________________
conv2d_24 (Conv2D)           (None, 7, 33, 48)         4608      
_________________________________________________________________
batch_normalization_24 (Batc (None, 7, 33, 48)         192       
_________________________________________________________________
activation_24 (Activation)   (None, 7, 33, 48)         0         
_________________________________________________________________
conv2d_25 (Conv2D)           (None, 7, 33, 96)         46080     
_________________________________________________________________
batch_normalization_25 (Batc (None, 7, 33, 96)         384       
_________________________________________________________________
activation_25 (Activation)   (None, 7, 33, 96)         0         
_________________________________________________________________
conv2d_26 (Conv2D)           (None, 7, 33, 168)        16128     
_________________________________________________________________
average_pooling2d_1 (Average (None, 3, 16, 168)        0         
_________________________________________________________________
batch_normalization_26 (Batc (None, 3, 16, 168)        672       
_________________________________________________________________
activation_26 (Activation)   (None, 3, 16, 168)        0         
_________________________________________________________________
conv2d_27 (Conv2D)           (None, 3, 16, 48)         8064      
_________________________________________________________________
batch_normalization_27 (Batc (None, 3, 16, 48)         192       
_________________________________________________________________
activation_27 (Activation)   (None, 3, 16, 48)         0         
_________________________________________________________________
conv2d_28 (Conv2D)           (None, 3, 16, 168)        80640     
_________________________________________________________________
batch_normalization_28 (Batc (None, 3, 16, 168)        672       
_________________________________________________________________
activation_28 (Activation)   (None, 3, 16, 168)        0         
_________________________________________________________________
conv2d_29 (Conv2D)           (None, 3, 16, 48)         8064      
_________________________________________________________________
batch_normalization_29 (Batc (None, 3, 16, 48)         192       
_________________________________________________________________
activation_29 (Activation)   (None, 3, 16, 48)         0         
_________________________________________________________________
conv2d_30 (Conv2D)           (None, 3, 16, 168)        80640     
_________________________________________________________________
batch_normalization_30 (Batc (None, 3, 16, 168)        672       
_________________________________________________________________
activation_30 (Activation)   (None, 3, 16, 168)        0         
_________________________________________________________________
conv2d_31 (Conv2D)           (None, 3, 16, 48)         8064      
_________________________________________________________________
batch_normalization_31 (Batc (None, 3, 16, 48)         192       
_________________________________________________________________
activation_31 (Activation)   (None, 3, 16, 48)         0         
_________________________________________________________________
conv2d_32 (Conv2D)           (None, 3, 16, 168)        80640     
_________________________________________________________________
batch_normalization_32 (Batc (None, 3, 16, 168)        672       
_________________________________________________________________
activation_32 (Activation)   (None, 3, 16, 168)        0         
_________________________________________________________________
conv2d_33 (Conv2D)           (None, 3, 16, 48)         8064      
_________________________________________________________________
batch_normalization_33 (Batc (None, 3, 16, 48)         192       
_________________________________________________________________
activation_33 (Activation)   (None, 3, 16, 48)         0         
_________________________________________________________________
conv2d_34 (Conv2D)           (None, 3, 16, 168)        80640     
_________________________________________________________________
batch_normalization_34 (Batc (None, 3, 16, 168)        672       
_________________________________________________________________
activation_34 (Activation)   (None, 3, 16, 168)        0         
_________________________________________________________________
conv2d_35 (Conv2D)           (None, 3, 16, 48)         8064      
_________________________________________________________________
batch_normalization_35 (Batc (None, 3, 16, 48)         192       
_________________________________________________________________
activation_35 (Activation)   (None, 3, 16, 48)         0         
_________________________________________________________________
conv2d_36 (Conv2D)           (None, 3, 16, 168)        80640     
_________________________________________________________________
batch_normalization_36 (Batc (None, 3, 16, 168)        672       
_________________________________________________________________
activation_36 (Activation)   (None, 3, 16, 168)        0         
_________________________________________________________________
conv2d_37 (Conv2D)           (None, 3, 16, 48)         8064      
_________________________________________________________________
batch_normalization_37 (Batc (None, 3, 16, 48)         192       
_________________________________________________________________
activation_37 (Activation)   (None, 3, 16, 48)         0         
_________________________________________________________________
conv2d_38 (Conv2D)           (None, 3, 16, 168)        80640     
_________________________________________________________________
batch_normalization_38 (Batc (None, 3, 16, 168)        672       
_________________________________________________________________
activation_38 (Activation)   (None, 3, 16, 168)        0         
_________________________________________________________________
global_average_pooling2d (Gl (None, 168)               0         
_________________________________________________________________
dense (Dense)                (None, 70)                11830     
=================================================================
Total params: 957,406
Trainable params: 951,646
Non-trainable params: 5,760
_________________________________________________________________
Deep DenseNet-Bottleneck-Compressed Network-40-12-3 created.Test_Case: SingleEConvNetssub_tc
 params:{'dir': '/data/run01/scv8518/JackieData', 'data_dir': '/data/run01/scv8518/JackieData
…
